ChatBot _Jincy/data.pth (torch, 5375 bytes, 6 tensors)

l1.weight f4 [8, 63]
0	0x3e9ed120	0.31018925
1	0x3e47ecbe	0.19523904
2	0x3ea465ef	0.3210902
3	0xbebbcd2e	-0.36679977
4	0xbe594782	-0.21218684
5	0xbe96a472	-0.29422337
6	0x3ebc12d8	0.36733127
7	0x3df347f9	0.11878962
8	0x3e56603d	0.2093515
9	0x3f6e9594	0.9319699
10	0x3e393ff4	0.18090802
11	0xbee2dca9	-0.44308975
12	0xbedc74a9	-0.43057755
13	0x3e06b50d	0.13155003
14	0xbe973ff9	-0.29540995
15	0xbe5b525d	-0.21418138
16	0x3ef46cdf	0.47739312
17	0x3e74d63f	0.23909853
18	0xbd0f7bb5	-0.035030086
19	0x3f656d2d	0.89619714
20	0x3eb7f638	0.35930037
21	0xbea36afb	-0.31917557
22	0x3ec9616d	0.39332142
23	0xbe9de4e5	-0.30838695
24	0xbeda9e67	-0.42698976
25	0xbee33dee	-0.44383186
26	0xbecd9850	-0.40155268
27	0x3f063a3f	0.52432626
28	0x3d97a723	0.07404926
29	0x3f2ac5a6	0.6670784
30	0xbdb3b47a	-0.087746575
31	0x3f16371a	0.5867783
32	0x3e314604	0.17311865
33	0x3e7604f4	0.24025327
34	0x3e8ae869	0.2713044
35	0x3f40b4c3	0.7527582
36	0x3f3a1154	0.7268269
37	0x3ece4a15	0.40290895
38	0x3ee9fe8a	0.4570201
39	0xbdb95d07	-0.09050947
40	0xbeed263a	-0.46318227
41	0xbeed4991	-0.4634519
42	0x3e40648d	0.18788357
43	0x3e922d2b	0.28550085
44	0xbeb249b0	-0.34821844
45	0x3f1cde70	0.6127691
46	0x3e45960a	0.19295517
47	0x3ee3e9e2	0.44514376
48	0x3ed6da75	0.41963544
49	0xbed6b171	-0.41932252
50	0xbd9ba734	-0.07600251
51	0x3e81b43b	0.25332817
52	0x3e4c0406	0.1992341
53	0xbe4a4773	-0.19753818
54	0x3ebc3edd	0.3676671
55	0x3f5863c4	0.8452723
56	0x3e6eb13d	0.23309799
57	0x3df50759	0.11964292
58	0x3f30e162	0.69093907
59	0xbed173dc	-0.40908706
60	0xbeda2a94	-0.4261061
61	0xbed03b5c	-0.40670288
62	0x3ee7f2b3	0.45302352
63	0xbe89b6cd	-0.26897278
64	0x3e324e25	0.17412622
65	0x3edea681	0.43486407
66	0x3eb60e1d	0.35557643
67	0x3e1081ab	0.14111964
68	0x3dabdd4c	0.083918184
69	0x3eeb3c62	0.45944506
70	0x3e041a7b	0.12900726
71	0x3ed0d7d1	0.40789655
72	0xbedd25ca	-0.43192893
73	0x3e56a8bf	0.20962809
74	0x3e4ad3f4	0.19807416
75	0x3ea11377	0.31460163
76	0x3e81ba1b	0.253373
77	0x3e8c1d2f	0.27366015
78	0x3e0de875	0.13858207
79	0x3ee498c0	0.4464779
80	0x3e99c9b4	0.300367
81	0xbea38a09	-0.3194125
82	0xbf0449ea	-0.51675284
83	0x3eee25d4	0.46513236
84	0xbe48593f	-0.19565295
85	0x3f196207	0.599152
86	0xbe05b230	-0.13056254
87	0xbe63af8e	-0.22234938
88	0xbe2af39c	-0.16694492
89	0xbee872c2	-0.45400053
90	0x3e6d5c8c	0.23179835
91	0x3e3b62cb	0.18299405
92	0xbf2c25be	-0.6724509
93	0x3e39a985	0.18131073
94	0xbec0e48f	-0.37674376
95	0x3da9a525	0.08283452
96	0x3eb2e2d6	0.34938687
97	0x3f0e6ce0	0.5563488
98	0xbf5feb71	-0.8746863
99	0xbf17af78	-0.5925212
100	0xbebd30f1	-0.36951402
101	0xbe52fc92	-0.2060416
102	0x3e1eeab1	0.15519215
103	0x3ebe8b6c	0.37215745
104	0x3eb1bfaa	0.3471654
105	0x3e3fb5f4	0.18721753
106	0x3ea4fe26	0.3222515
107	0x3e8c3fc3	0.27392396
108	0xbe95af25	-0.29235187
109	0x3e95e815	0.29278627
110	0x3ef6031d	0.4804925
111	0x3f078d01	0.5294953
112	0x3e98b8b6	0.29828423
113	0x3f0c4ecd	0.5480774
114	0x3e5f72bd	0.21821113
115	0x3e73815e	0.23779818
116	0x3e8bc044	0.27295125
117	0x3e81fbd3	0.2538744
118	0x3f9b8b0d	1.215181
119	0x3e3a6cbf	0.18205546
120	0x3e235b49	0.15952791
121	0xbf11af69	-0.5690828
122	0x3e800bad	0.25008908
123	0x3eb40234	0.3515793
124	0x3ed1658f	0.40897796
125	0x3e2e8580	0.17043114
126	0x3dbdbdad	0.092646934
127	0x3efb547c	0.49087894
128	0x3dd20569	0.10254938
129	0x3f19a6c3	0.60020083
130	0x3ec99dfc	0.39378345
131	0x3ed31290	0.412251
132	0x3eeb5cdb	0.4596928
133	0x3ec07876	0.37591904
134	0x3ef05324	0.4693843
135	0xbf15a9f4	-0.5846245
136	0xbe7f0d00	-0.24907303
137	0x3ed955e5	0.42448345
138	0x3f013f62	0.5048734
139	0xbda6880a	-0.08131416
140	0x3eb6586e	0.35614341
141	0x3f083eda	0.53220904
142	0x3f06fdb4	0.5273087
143	0xbe042ede	-0.12908503
144	0x3eb3c434	0.3511063
145	0xbef8cca3	-0.48593625
146	0x3f02437b	0.5088422
147	0x3f122253	0.57083625
148	0x372382d6	9.74602e-06
149	0x3f0a258f	0.5396356
150	0x3e9c0cdc	0.3047856
151	0x3ea3c37d	0.31985083
152	0x3da3696d	0.07979093
153	0xbda1a630	-0.07893026
154	0xbd958626	-0.073009774
155	0xbf26b65a	-0.65121996
156	0x3e937ed2	0.28807694
157	0xbed6e772	-0.41973454
158	0x3ea38ef1	0.31944993
159	0xbe440b82	-0.19145015
160	0xbdc24772	-0.09486283
161	0xbf073cc0	-0.5282707
162	0xbf05722f	-0.52127355
163	0xbeb9f786	-0.36321658
164	0xbe85d086	-0.26135653
165	0x3ea6f58f	0.3260922
166	0x3f2816d5	0.6565984
167	0x3f1473df	0.57989305
168	0xbcc99fd1	-0.02461234
169	0xbd815309	-0.06314666
170	0x3f0f0c06	0.5587772
171	0xbe8989e3	-0.26863012
172	0xbcea3b2c	-0.028592668
173	0x3ef24276	0.4731633
174	0x3f154d2e	0.5832089
175	0x3f0469b6	0.517238
176	0x3eb17ae5	0.34664074
177	0x3ebbcc44	0.3667928
178	0x3d0238f8	0.03179261
179	0x3e6bb390	0.23017716
180	0xbdf08f72	-0.1174611
181	0xbf5a090d	-0.8517006
182	0xbdc2c696	-0.095105335
183	0xbda58d95	-0.08083645
184	0xbee51d08	-0.44748712
185	0x3ee6277e	0.44952005
186	0x3f287880	0.6580887
187	0x3f3f3ad3	0.74699134
188	0x3e492647	0.19643508
189	0xbe12af1b	-0.1432461
190	0x3e96452f	0.29349658
191	0x3d987141	0.074434765
192	0x3e2f4c53	0.17118959
193	0xbe2bd190	-0.1677916
194	0xbde8454e	-0.11341344
195	0x3f043d41	0.51655966
196	0x3e73a2f6	0.23792633
197	0x3f21bf1c	0.63182235
198	0xbd4f74a4	-0.050648347
199	0xbe2a2db4	-0.16618997
200	0x3e937a5b	0.28804287
201	0x3e94efcb	0.29089198
202	0xbe069482	-0.13142589
203	0x3e92fd9e	0.2870912
204	0xbe551b72	-0.20811251
205	0x3f0f91f7	0.560821
206	0x3d13d582	0.03609229
207	0xbe94b566	-0.29044646
208	0xbe955db8	-0.29173064
209	0x3ecfe31e	0.40602964
210	0xbf07f890	-0.5311365
211	0x3d7537ca	0.059867658
212	0xbf02efda	-0.51147234
213	0xbf0aa01d	-0.54150563
214	0xbf099a77	-0.5375132
215	0xbf057f24	-0.52147126
216	0xbe0dcf79	-0.13848676
217	0xbd073f78	-0.033019513
218	0xbe968b1f	-0.29403016
219	0xbdeb824b	-0.11499461
220	0xbe985f89	-0.29760388
221	0x3e24ed8c	0.16106242
222	0xbe51cbe4	-0.20487934
223	0x3b63e840	0.0034775883
224	0xbf53febe	-0.8281058
225	0xbe8c0043	-0.2734395
226	0xbe22dd87	-0.15904818
227	0xbe6ae2d7	-0.22938095
228	0x3e72b0ad	0.23700209
229	0x3e52a8fd	0.20572276
230	0x3db4c55e	0.08826707
231	0xbd6221e0	-0.055208087
232	0x3d4f0838	0.050544947
233	0x3e9221e9	0.28541496
234	0xbe958d8d	-0.29209557
235	0xbd8869ce	-0.06660806
236	0x3f173663	0.5906736
237	0x3f0cfe2a	0.55075324
238	0x3e6cd9ab	0.23129909
239	0x3efa0cd0	0.488379
240	0x3ec4f452	0.38467652
241	0x3e51aab5	0.20475276
242	0xbe4a3509	-0.19746794
243	0xbdeca88e	-0.11555587
244	0xbf0a89d4	-0.5411656
245	0xba680241	-0.00088504335
246	0x3cb73310	0.022363216
247	0xbeeca321	-0.46218207
248	0x3e7c9de5	0.24669607
249	0x3e89f311	0.26943257
250	0x3e669e1b	0.2252125
251	0x3e5091b9	0.20368089
252	0x3f181de9	0.5942064
253	0x3ec57d94	0.3857237
254	0x3e188cff	0.14897536
255	0xbef2d863	-0.47430715

l1.bias f4 [8]
0	0x3efeae4c	0.49742353
1	0x3f446ba1	0.7672673
2	0x3f5a0959	0.85170513
3	0x3f0aa3bb	0.5415608
4	0x3f2324c4	0.63727975
5	0x3f0dd404	0.55401635
6	0x3f1a0132	0.60158074
7	0x3ebb78c5	0.36615577

l2.weight f4 [8, 8]
0	0x3eec35a4	0.46134675
1	0x3f6e0b11	0.92985636
2	0x3f3188f3	0.6934959
3	0x3fbc2add	1.4700581
4	0x3f88a840	1.0676346
5	0xbfaca2aa	-1.3487141
6	0xbebd1d47	-0.369364
7	0xbf19154b	-0.59798115
8	0xbd38024f	-0.044924077
9	0x3de9d777	0.1141805
10	0xbe8ff1d0	-0.28114176
11	0xbe90765e	-0.28215307
12	0xbd8cbb35	-0.068716444
13	0x3d35c90c	0.044381186
14	0xbe88a85c	-0.26690948
15	0x3df33d1f	0.11876892
16	0x3fadad23	1.3568462
17	0xbf16e784	-0.58947015
18	0xbea20f53	-0.31652316
19	0xbf9fedc1	-1.2494432
20	0x3f88fe89	1.0702678
21	0x3fd771d6	1.6831615
22	0x3f2c87b8	0.6739459
23	0x3fb15d07	1.3856515
24	0x3f87dbec	1.061399
25	0x3f89d153	1.0767006
26	0xbf5086ba	-0.81455576
27	0x3eff3013	0.49841365
28	0x3fa7298d	1.3059555
29	0x3f7e05ec	0.99227786
30	0xbf4453b0	-0.76690197
31	0x3fac3e90	1.3456593
32	0x3f963cc2	1.1737292
33	0xbe91269a	-0.28349763
34	0x3ee73969	0.45160988
35	0x3f944190	1.1582508
36	0x3fe3fa1b	1.7810701
37	0xbe657aa1	-0.2241006
38	0xbfd04ced	-1.6273476
39	0x3ed5277b	0.41631684
40	0x3f1ecc99	0.6203094
41	0x3f7724f5	0.96540767
42	0x3f4b91d8	0.79519415
43	0x3fb31e5d	1.3993641
44	0x3f7e13af	0.99248785
45	0xbfbc069f	-1.4689521
46	0xbed75059	-0.42053488
47	0xbf1f7956	-0.6229452
48	0x3f967db5	1.1757113
49	0x3f8c4df9	1.0961295
50	0xbfdd65d0	-1.7296696
51	0xbf495dba	-0.7865864
52	0x3f082312	0.53178513
53	0x3e71eab8	0.23624694
54	0x3f6cc1f4	0.9248345
55	0x3ec64183	0.38721856
56	0xbf3a737f	-0.72832483
57	0x3ff34347	1.9004906
58	0x3faacb91	1.3343374
59	0x3f55236b	0.8325717
60	0xbe69a3aa	-0.22816339
61	0x3f4a56a1	0.79038435
62	0x3fc128bf	1.509056
63	0xbf8290ac	-1.02004

l2.bias f4 [8]
0	0x3ea73fb4	0.3266579
1	0xbcb0cfe1	-0.0215835
2	0x3f4bcce2	0.796095
3	0x3d96ff41	0.073729046
4	0x3e7caa29	0.24674286
5	0x3ecaff6e	0.39648002
6	0x3d8b3b2b	0.06798395
7	0x3f151551	0.5823565

l3.weight f4 [6, 8]
0	0x3ec4dc51	0.38449338
1	0x3e25566d	0.1614625
2	0xbe16fb00	-0.14744186
3	0xbd91e704	-0.07124141
4	0x3ee6f604	0.4510957
5	0x3ec5c644	0.38627827
6	0xbd3846a0	-0.04498923
7	0xbfd8b259	-1.6929427
8	0xbf99376e	-1.1970041
9	0x3a64175c	0.00087009906
10	0x3eac215e	0.33619207
11	0xbf360e2f	-0.7111539
12	0xbf947c92	-1.1600516
13	0xbf88a0d6	-1.0674083
14	0xbf04e615	-0.5191358
15	0x3f7ff075	0.99976283
16	0xbfc7effe	-1.5620115
17	0x3e35320b	0.17694871
18	0x3f08bf09	0.53416497
19	0x3f48a79d	0.7838076
20	0x3dd2eb20	0.10298753
21	0xbfc5a2a3	-1.5440258
22	0xbe5a87d3	-0.21340875
23	0xbf92e9cf	-1.1477603
24	0x3f2f818f	0.68557066
25	0xbd7ab213	-0.06120498
26	0xbfd4538c	-1.6587996
27	0x3ea432d6	0.32070035
28	0x3f14f757	0.5818991
29	0x3f022554	0.5083821
30	0xbfcfd7de	-1.6237752
31	0xbe138dfe	-0.14409634
32	0xbf34783a	-0.7049595
33	0xbe342c77	-0.17595087
34	0x3e2e0b78	0.16996562
35	0x3f065a2f	0.5248136
36	0xbffda539	-1.9816047
37	0xbf791289	-0.9729391
38	0x3f85646d	1.0421273
39	0xbebed044	-0.3726827
40	0x3f4630f9	0.77418476
41	0xbe33379c	-0.17501682
42	0xbff1457a	-1.8849328
43	0xbfa64cd6	-1.2992198
44	0xbfcc935c	-1.598247
45	0x3f34ff6b	0.70702237
46	0xbf97f534	-1.1871705
47	0x3f5cbf02	0.86228955

l3.bias f4 [6]
0	0x3d8aef8f	0.067839734
1	0x3e8a0f0f	0.26964614
2	0x3e17037f	0.14747427
3	0xbf2ec242	-0.68265164
4	0xbec05d57	-0.37571213
5	0x3e4e696e	0.20157406
