ChatBot/data.pth (torch, 5418 bytes, 6 tensors)

l1.weight f4 [8, 54]
0	0xbe9fed37	-0.31235668
1	0x3ef9ff56	0.48827618
2	0xbec170bb	-0.3778132
3	0xbd88a2b3	-0.066716574
4	0xbe773197	-0.24140011
5	0x3f6ec19d	0.9326418
6	0xbe0b1287	-0.13581286
7	0xbe44a5bc	-0.19203848
8	0xbe7f9f95	-0.2496322
9	0xbe8c03a8	-0.2734654
10	0xbe4da7df	-0.20083569
11	0xbe3f7507	-0.18696986
12	0x3d5df66f	0.054190096
13	0xbcd3d006	-0.02585603
14	0x3ec2b184	0.3802606
15	0xbe0748e2	-0.13211396
16	0xbe253a3f	-0.161355
17	0x3f4b1e3a	0.79343
18	0xbea9e96c	-0.331859
19	0xbe8cf5b8	-0.2753122
20	0xbdebbbac	-0.11510405
21	0xbeb241e7	-0.34815904
22	0xbeb944af	-0.36185214
23	0xbe620102	-0.22070697
24	0xbe498095	-0.19677956
25	0xbe4c5cd8	-0.19957292
26	0xbeb763cc	-0.35818326
27	0x3f24c702	0.6436616
28	0x3d51571f	0.051108476
29	0x3ef7eadc	0.4842137
30	0x3f22d3c6	0.6360439
31	0xbdd825b7	-0.105540685
32	0xbdade465	-0.084908284
33	0xbee774e6	-0.45206374
34	0x3ed4f658	0.41594195
35	0xbd3b8d8f	-0.045789298
36	0xbdfc6442	-0.1232381
37	0xbe969af9	-0.2941511
38	0xbb865b5c	-0.0041002464
39	0xbd8aae0d	-0.06771479
40	0x3f161105	0.5861972
41	0xbee701fe	-0.45118707
42	0x3dd508b2	0.10402049
43	0x3ef2fdb2	0.4745918
44	0xbebf7e8b	-0.37401232
45	0x3f12fcaf	0.57416815
46	0xbf1e3c29	-0.6181055
47	0xbe047cdb	-0.12938254
48	0x3c67cf25	0.014148508
49	0xbec6b8d1	-0.3881288
50	0xbde47cfd	-0.11156652
51	0xbe1a0ae8	-0.15043223
52	0xbe5d1772	-0.21590975
53	0x3e2afaba	0.16697207
54	0xbe43a936	-0.19107518
55	0x3ee643bc	0.44973552
56	0x3e983570	0.2972827
57	0x3e9ea769	0.309871
58	0x3f2125e0	0.6294842
59	0xbc52a9ef	-0.012857898
60	0x3eb56d62	0.35435015
61	0x3eb657a3	0.35613737
62	0x3ed67bbf	0.41891286
63	0x3eb29ad0	0.34883738
64	0x3edd959e	0.4327821
65	0xbea6f6d1	-0.3261018
66	0x3e12d977	0.14340769
67	0xbe8bead6	-0.27327603
68	0x3ed6fd2a	0.41990024
69	0xbdb1a6d0	-0.08674395
70	0x3ea46235	0.32106176
71	0x3d53471e	0.051581495
72	0xbe81c531	-0.25345758
73	0x3f49925c	0.7873895
74	0xbe2da831	-0.16958691
75	0x3f227820	0.63464546
76	0x3f2d8712	0.67784226
77	0x3cfaad91	0.030600341
78	0x3e04bbe2	0.12962297
79	0x3e86f7c8	0.26360917
80	0xbece46fb	-0.4028853
81	0x3f14b7be	0.5809287
82	0xbebe80c4	-0.37207615
83	0x3ea6608f	0.32495543
84	0xbd8c3ca3	-0.06847503
85	0xbe7393b9	-0.2378682
86	0xbe17b5fc	-0.14815515
87	0x3e85afc5	0.26110664
88	0x3ecb04db	0.39652142
89	0xbe7e728d	-0.24848385
90	0xbeac0965	-0.33600917
91	0x3eb0e0a8	0.345464
92	0x3e957b6f	0.29195735
93	0x3e8ff324	0.2811519
94	0xbd0c3543	-0.03423048
95	0xbf0326d9	-0.5123115
96	0xbea6dc5b	-0.32589993
97	0x3eb65d58	0.3561809
98	0x3df9a700	0.12190056
99	0x3f07b23d	0.53006345
100	0xbf42f37c	-0.7615278
101	0xbe8bc00b	-0.27294955
102	0x3e6d264c	0.2315914
103	0xbedeb89b	-0.43500218
104	0xbe979cab	-0.29611716
105	0xbe951f65	-0.29125515
106	0x3e8c4ef9	0.27404
107	0x3df48de7	0.11941128
108	0xbe5b7411	-0.21430995
109	0xbe061798	-0.13094938
110	0x3ee8e738	0.45488906
111	0x3ed74de2	0.42051607
112	0x3edec6ec	0.4351114
113	0x3c6a5398	0.014302157
114	0x3ed15f13	0.40892848
115	0x3e7950e3	0.24347262
116	0x3ea075fb	0.31340012
117	0x3ea895ff	0.32926938
118	0x3ec6583d	0.38739195
119	0xbe885475	-0.26626936
120	0x3ed00f49	0.40636662
121	0xbe884169	-0.26612404
122	0xbd2d6148	-0.042329103
123	0xbe1577cd	-0.14596482
124	0x3f07b7fb	0.53015107
125	0xbe4bcac0	-0.19901562
126	0xbdbd3d81	-0.092402466
127	0x3f053af0	0.52043056
128	0xbc0c2cf5	-0.0085556405
129	0x3f03d18f	0.51491636
130	0x3f30f253	0.6911976
131	0x3eaed12e	0.34143966
132	0x3eac4843	0.3364888
133	0x3e5ef018	0.21771276
134	0xbdc578e6	-0.096422
135	0xbc97e05e	-0.018539604
136	0x3daf38d4	0.08555761
137	0xbe8878c2	-0.2665463
138	0xbd98f4d2	-0.07468571
139	0xbebf3f41	-0.37352946
140	0xbc825738	-0.01591073
141	0x3f01094a	0.504048
142	0x3f45ec70	0.773139
143	0xbdff0fbe	-0.124541745
144	0xbc301f51	-0.010749654
145	0x3e4d1285	0.20026596
146	0x3ec7fc60	0.39059734
147	0x3e708dfd	0.23491664
148	0xbda6a2a4	-0.0813649
149	0xbdc4114c	-0.095736116
150	0xbe9de9f7	-0.30842564
151	0xbca13a36	-0.019681077
152	0x3e9a7f2a	0.30175143
153	0x3f240717	0.6407332
154	0xbefdc195	-0.49561754
155	0xbdea82e8	-0.1145075
156	0x3ec68f65	0.38781276
157	0xbde6dc07	-0.11272436
158	0xbdd07995	-0.1017944
159	0x3da46d7b	0.08028694
160	0x3ec7745a	0.38955957
161	0x3e21f001	0.1581421
162	0xbdbe7045	-0.092987575
163	0x3e5024a0	0.20326471
164	0x3ec22094	0.3791548
165	0x3dc43a2a	0.095814064
166	0x3ea54970	0.3228259
167	0xbdf59fe2	-0.11993386
168	0x3e8c415f	0.27393624
169	0x3f059dde	0.5219401
170	0x3efb427e	0.49074167
171	0x3ea14a2b	0.31501898
172	0xbd937e02	-0.072017685
173	0xbe47d695	-0.1951545
174	0x3f09880c	0.53723216
175	0xbdf2f6ed	-0.118635036
176	0x3e1adda3	0.1512361
177	0xbe712b2a	-0.23551622
178	0x3bc19252	0.0059073353
179	0xbdb869da	-0.090045646
180	0xbd62c74e	-0.055365853
181	0xbbbd435f	-0.0057758535
182	0xbdac24b1	-0.08405436
183	0x3d884894	0.06654468
184	0xbd547828	-0.051872402
185	0xbeb1df63	-0.34740743
186	0x3e859646	0.26091212
187	0x3cf0ee43	0.029410487
188	0x3e006f97	0.12542568
189	0x3e358616	0.17726931
190	0x3e744c90	0.23857331
191	0x3e37e68b	0.17959039
192	0xbe87cd93	-0.26524028
193	0x3d4a1e83	0.049345504
194	0xbde62790	-0.11238015
195	0x3ed6258e	0.41825527
196	0x3e766f49	0.2406589
197	0xbe6c4d66	-0.230764
198	0x3dadeccf	0.08492433
199	0x3ed1eac6	0.4099943
200	0x3f074095	0.5283292
201	0x3eedfb58	0.46480823
202	0xbe10af4a	-0.14129367
203	0xbe423076	-0.18963799
204	0xbe147abf	-0.14499949
205	0x3e312a0f	0.173012
206	0x3eda9e68	0.4269898
207	0x3e80c344	0.25148976
208	0xbed0442a	-0.40677005
209	0x3d49e8d1	0.049294297
210	0xbd371ef8	-0.04470727
211	0xbd358c93	-0.044323515
212	0xbe80d028	-0.2515881
213	0xbd5caaaa	-0.053873695
214	0x3efdca36	0.49568337
215	0x3e956941	0.29181865
216	0xbe9077b7	-0.28216335
217	0xbe75af9b	-0.2399277
218	0xbe97cd9a	-0.2964905
219	0x3eff2f9b	0.49841008
220	0x3e149fc6	0.14514074
221	0x3ed1875d	0.40923586
222	0xbea96052	-0.330813
223	0xbeaf1b9d	-0.34200755
224	0xbf0e5bef	-0.5560903
225	0xbee5ad10	-0.448586
226	0x3f10340c	0.5632942
227	0x3f1d242a	0.61383307
228	0xbd826f83	-0.063689254
229	0x3efdd6d5	0.49577966
230	0xbded7f72	-0.11596574
231	0x3eef9d77	0.46799824
232	0x3ef222e6	0.4729225
233	0x3edc9e9b	0.43089756
234	0xbe02fddc	-0.12792152
235	0x3f396a25	0.7242759
236	0xbe859bce	-0.26095432
237	0x3f2f6860	0.6851864
238	0x3f20106b	0.6252505
239	0x3f44f148	0.76930666
240	0x3ec2bc9a	0.38034517
241	0x3eec07d5	0.46099725
242	0xbebc6175	-0.36793104
243	0xbe02cf45	-0.1277438
244	0xbdcb088e	-0.09913741
245	0xbe373f2d	-0.17895193
246	0x3ee7a4fe	0.45243067
247	0x3f12b20e	0.5730294
248	0xbdb20f6a	-0.08694346
249	0xbea24c2a	-0.31698734
250	0xbe3fc3a4	-0.18726975
251	0x3eccfb57	0.40035507
252	0xbeae7a19	-0.34077528
253	0xbebb9052	-0.36633545
254	0xbe8faa60	-0.28059673
255	0xbea5c054	-0.32373297

l1.bias f4 [8]
0	0x3f1e3f0f	0.6181497
1	0x3f2f3182	0.6843492
2	0x3eacb2fe	0.3373031
3	0x3deb4ff0	0.11489856
4	0x3f55f803	0.8358156
5	0x3ec09cf6	0.37619752
6	0x3f4fe120	0.8120289
7	0x3f1d68ff	0.61488336

l2.weight f4 [8, 8]
0	0xbf55158a	-0.8323599
1	0xbf5306a8	-0.8243203
2	0xbe6800b3	-0.22656517
3	0xbf14520a	-0.5793768
4	0x3db1f745	0.08689741
5	0x3f5db582	0.86605084
6	0x3f814f5e	1.0102346
7	0x3f8ce3bb	1.1006998
8	0xbf4ec27e	-0.8076552
9	0xbef730a7	-0.48279306
10	0x3988cdf5	0.0002609339
11	0xbf32cd81	-0.69844824
12	0x3f4af798	0.7928405
13	0x3f56c85a	0.8389946
14	0x3ea931b1	0.33045724
15	0x3d8f84c7	0.07007747
16	0xbf42bd7d	-0.76070386
17	0x3f72d28b	0.94852513
18	0x3dd1e3ef	0.10248553
19	0xbe031ea1	-0.12804653
20	0xbd0ed732	-0.034873195
21	0xbf880fb1	-1.0629789
22	0x3f922799	1.1418334
23	0x3f14b3fa	0.5808712
24	0x3fae28b0	1.3606167
25	0x3f8069fd	1.0032345
26	0x3ec5862e	0.38578933
27	0xbf713483	-0.9422075
28	0x3fb3b21b	1.4038728
29	0x3f353ce5	0.7079604
30	0x3e8f8cea	0.28037196
31	0xbeb83e66	-0.35985106
32	0xbf47fc41	-0.78119284
33	0x3f7a8e83	0.97873706
34	0x3fa90ac4	1.320641
35	0x3f7f6bb6	0.9977373
36	0x3ee6a57d	0.45048133
37	0xbebc91cb	-0.3682998
38	0xbef50ffa	-0.47863752
39	0x3ef1ef44	0.47252858
40	0xbde75fb9	-0.112975545
41	0x3f8bbd89	1.0917217
42	0x3f76fd36	0.9648012
43	0x3f89d659	1.0768539
44	0xbf1ef9f8	-0.6210017
45	0x3e2c04a1	0.16798641
46	0xbf4b9648	-0.79526186
47	0x3f373fb2	0.71581566
48	0x3e37e270	0.17957473
49	0x3e3a11ce	0.18170854
50	0x3e75d8b6	0.2400845
51	0xbd953809	-0.072860785
52	0xbe74c6dc	-0.23903984
53	0x3d8694b0	0.06571329
54	0xbe7a788b	-0.24460046
55	0xbce30c95	-0.02771596
56	0x3f874287	1.0567178
57	0x3ec6ec36	0.3885209
58	0xbf0346d2	-0.5127994
59	0x3dda30f1	0.10653866
60	0xbf339817	-0.70153946
61	0x3f86ace6	1.0521514
62	0xbd6e3a04	-0.058160797
63	0x3f180551	0.5938311

l2.bias f4 [8]
0	0x3f002c4d	0.500676
1	0xbe8e7416	-0.27822942
2	0x3f02ac1b	0.5104386
3	0x3c4ce47b	0.012505646
4	0x3d82f6a6	0.06394701
5	0x3e26b46d	0.16279764
6	0xbedeba7d	-0.43501654
7	0x3e1f3512	0.15547588

l3.weight f4 [7, 8]
0	0x3ee4ef28	0.44713712
1	0x3f198370	0.5996618
2	0xbf458842	-0.7716104
3	0xbc542472	-0.012948142
4	0xbf9935a5	-1.1969496
5	0xbf845a40	-1.0340042
6	0x3db6b9a0	0.08922124
7	0xbf566dc2	-0.8376123
8	0xbfa769fa	-1.3079216
9	0xbf36fd4e	-0.7148026
10	0xbf90bdae	-1.1307886
11	0xbf1ee29d	-0.62064534
12	0xbdc85c16	-0.09783189
13	0x3ed83f5d	0.42235842
14	0x3f161587	0.586266
15	0x3f21a846	0.6314739
16	0xbf0a79ba	-0.5409199
17	0xbfb15186	-1.3853004
18	0xbf374553	-0.71590155
19	0x3f657905	0.89637786
20	0xbfc74bb6	-1.556998
21	0xbf9ed579	-1.2408897
22	0xbf3b864c	-0.73251796
23	0x3e604343	0.21900658
24	0xbe87055b	-0.26371273
25	0xbf2077bb	-0.62682694
26	0x3ee15e89	0.44017437
27	0x3e6ead5f	0.23308323
28	0x3ed42ae6	0.4143898
29	0xbea84588	-0.32865548
30	0x3d99c1b8	0.07507652
31	0xbfc71b95	-1.5555292
32	0x3ef5dae4	0.48018563
33	0xbeeb2486	-0.45926303
34	0xbf9ab649	-1.2086879
35	0xbfb4ad76	-1.4115436
36	0x3e0e9812	0.13925198
37	0x3e92836f	0.286159
38	0xbf0dfa32	-0.5545989
39	0x3e267767	0.16256486
40	0xbf7f4e18	-0.99728537
41	0xbf90b87f	-1.1306304
42	0xbcbc3b8c	-0.022977613
43	0xbfdcb990	-1.7244129
44	0x3f296b3e	0.66179264
45	0x3f398ab3	0.72477263
46	0xbea7988e	-0.32733577
47	0xbf18e794	-0.5972836
48	0x3f391008	0.72290087
49	0xbf0eac96	-0.55732095
50	0x3f4daa9e	0.80338466
51	0xbf426640	-0.7593727
52	0xbfc96935	-1.5735232
53	0xbf80991a	-1.0046723
54	0xbeae8bed	-0.3409113
55	0xbea6e220	-0.32594395

l3.bias f4 [7]
0	0xbeef5f78	-0.46752524
1	0x3de58917	0.112077884
2	0x3f15642e	0.5835599
3	0xbd61f8a5	-0.055168767
4	0xbe18aa76	-0.14908776
5	0x3ded850a	0.11597641
6	0xbc7b32e3	-0.015331957
