Current Application Tkinter/data.pth (torch, 5375 bytes, 6 tensors)

l1.weight f4 [8, 63]
0	0x3f1826b4	0.59434056
1	0x3f06f208	0.5271306
2	0x3db699a9	0.08916027
3	0xbf056bad	-0.52117425
4	0x3e3b329a	0.18281022
5	0x3d8f783b	0.07005354
6	0x3ec2f8a8	0.38080335
7	0x3ec366be	0.38164324
8	0x3f34d042	0.70630276
9	0x3cb40bff	0.021978376
10	0xbe460f7e	-0.19341847
11	0xbf0f5806	-0.5599369
12	0xbf104f9d	-0.5637148
13	0xbe7d2ec8	-0.24724877
14	0xbea19925	-0.31562153
15	0x3aa1f071	0.0012354982
16	0x3f0f5451	0.5598803
17	0x3cb8ee72	0.022574637
18	0x3e0d8a8c	0.13822383
19	0xbdb9ee5a	-0.09078665
20	0x3f2b5bc4	0.669369
21	0x3dffc85c	0.124893874
22	0xbd60c4b9	-0.05487511
23	0x3e87d022	0.2652598
24	0x3e039c33	0.12852554
25	0x3de3001a	0.11084004
26	0x3cd349bf	0.025792
27	0x3ebd3d3d	0.36960784
28	0xbe17f5c0	-0.1483984
29	0x3f4587e8	0.771605
30	0x3e6d2727	0.23159467
31	0xbd112135	-0.03543206
32	0x3e6f4cea	0.23369184
33	0xbd4fd5fb	-0.050741177
34	0xbebed10c	-0.37268865
35	0x3f46d59f	0.7766971
36	0x3f1282bf	0.5723075
37	0x3f08a843	0.53381747
38	0x3ee8945c	0.4542569
39	0xbe6abb5d	-0.22923036
40	0xbf04a018	-0.51806784
41	0xbeff4128	-0.49854398
42	0xbe88db75	-0.26729932
43	0xbe81c1b0	-0.25343084
44	0xbf0059b4	-0.50136876
45	0xbd202fa5	-0.039107937
46	0xbdec226c	-0.11530003
47	0x3f382119	0.71925503
48	0x3f340a0b	0.70327824
49	0xbf1638d5	-0.5868047
50	0x3f2f48aa	0.6847025
51	0x3eed145a	0.4630459
52	0x3ec3f807	0.38275167
53	0x3c9ec392	0.019380365
54	0xbd34d3fd	-0.04414748
55	0xbf003270	-0.5007696
56	0xbe69e777	-0.22842203
57	0xbe77d5f7	-0.24202715
58	0x3f31dd8f	0.69478697
59	0xbed99b99	-0.42501524
60	0xbf15c90a	-0.58509886
61	0xbede2d8f	-0.43394133
62	0x3e98d758	0.29851794
63	0xbed6af13	-0.41930446
64	0x3e357a4c	0.17722434
65	0x3ec46550	0.38358545
66	0x3f2a705a	0.66577685
67	0x3ec7754a	0.38956672
68	0x3eee883c	0.46588314
69	0xbdd15dd6	-0.10222976
70	0xbd992c95	-0.074792065
71	0x3d826f0a	0.06368835
72	0xbf46a6ca	-0.7759825
73	0x3e583dea	0.21117368
74	0x3ed8d1ac	0.42347467
75	0x3f17a0c5	0.5922969
76	0x3d98f066	0.07467727
77	0x3ee11783	0.4396325
78	0x3eef23ee	0.467071
79	0xbcbd93ca	-0.02314176
80	0x3eab401c	0.3344735
81	0x3edd5abd	0.4323329
82	0xbf3935c8	-0.7234769
83	0xbc3f55fa	-0.011678213
84	0x3f5d033d	0.86333066
85	0x3eb35c60	0.35031414
86	0x3f3a390e	0.7274331
87	0x3f68791d	0.90809804
88	0x3f671017	0.90258926
89	0x3ecca34c	0.39968336
90	0xbe85ed4e	-0.26157612
91	0x3e66c325	0.22535379
92	0xbf068a2f	-0.525546
93	0x3f0db751	0.55357844
94	0xbf0aa090	-0.5415125
95	0x3e806dc0	0.25083733
96	0x3e5a9b05	0.21348198
97	0x3f0d1050	0.55103016
98	0xbf35bc52	-0.7099048
99	0xbf0ebbb4	-0.5575516
100	0xbeb2188f	-0.34784362
101	0xbe6514c2	-0.223712
102	0x3efd7927	0.49506494
103	0x3f0a0287	0.53910106
104	0x3f055c75	0.52094203
105	0x3ec73c4f	0.389132
106	0x3ee58ca8	0.44833875
107	0x3f2183b6	0.630916
108	0xbf1124b5	-0.56696635
109	0x3e6ea77d	0.23306079
110	0x3e116088	0.1419698
111	0x3e01fa5e	0.12693164
112	0x3f0fe94d	0.56215364
113	0xbb329589	-0.0027249774
114	0xbc98a13d	-0.018631572
115	0xbd8c70a5	-0.06857423
116	0x3ec97f19	0.3935478
117	0x3ea34d1f	0.31894776
118	0x3f22bbf2	0.6356803
119	0x3de15e70	0.11004341
120	0x3ea1fab5	0.31636587
121	0xbf019791	-0.50621897
122	0x3eb751c0	0.35804558
123	0x3f1c9fd8	0.611814
124	0x3f0c91b7	0.54909843
125	0x3ea3ae65	0.3196899
126	0xbec26668	-0.37968755
127	0xbec1c974	-0.3784901
128	0x3efcf8af	0.4940848
129	0x3f31d90a	0.694718
130	0x3ca8ce23	0.020606106
131	0xbd9877de	-0.07444738
132	0xbf101091	-0.5627528
133	0xbe76ad9a	-0.24089661
134	0xbf0fd79f	-0.56188387
135	0xbdbf3198	-0.09335631
136	0x3ef26ff8	0.4735105
137	0x3f26d9ba	0.65175974
138	0x3f2226d8	0.6334052
139	0x3e629a4f	0.22129177
140	0x3ec4aaa8	0.3841145
141	0x3e666e9d	0.22503133
142	0xbf0fd8a4	-0.5618994
143	0x3ea22c74	0.3167454
144	0xbdf9f640	-0.122051716
145	0xbe1756f9	-0.14779271
146	0xbf0fb613	-0.561372
147	0x3d6f39da	0.05840478
148	0x3e4295e2	0.19002488
149	0x3f4c4209	0.7978826
150	0x3c81b81f	0.015834866
151	0x3c0c06eb	0.008546571
152	0x3e67ab48	0.22623932
153	0x3e11c653	0.14235811
154	0x3e5b3680	0.21407509
155	0xbf0f6791	-0.56017405
156	0x3dc7b2fa	0.09750934
157	0xbd3b3aba	-0.045710303
158	0xbe1e6bab	-0.1547076
159	0x3ec6dcc6	0.38840312
160	0x3ed4eb54	0.4158579
161	0xbf2a2284	-0.66458917
162	0xbef9fcc3	-0.48825654
163	0xbe7c1e42	-0.24620917
164	0xbea0e3a4	-0.31423676
165	0x3eff0417	0.49807808
166	0x3f15710c	0.5837562
167	0x3ef4c8e7	0.47809526
168	0x3e76240b	0.24037187
169	0x3e773a4b	0.24143331
170	0x3f11095c	0.56654906
171	0x3c9c2bef	0.019063918
172	0x3e272147	0.16321288
173	0xbf10163c	-0.56283927
174	0xbf0fde72	-0.561988
175	0x3ef8d296	0.48598164
176	0xbf0fe45c	-0.56207824
177	0xbebf9297	-0.37416527
178	0xbe6e2e85	-0.23259933
179	0x3df04970	0.11732757
180	0x3eb40682	0.35161215
181	0x3f9db1fb	1.231994
182	0x3e969758	0.2941234
183	0x3ea0ed22	0.31430918
184	0xbed55c76	-0.41672105
185	0x3ea419b1	0.3205085
186	0x3edc5c53	0.43039188
187	0x3f31a0bf	0.69385904
188	0x3881ef20	6.19574e-05
189	0xbd711a73	-0.058863115
190	0xbe83b630	-0.25724936
191	0x3e8cd764	0.2750808
192	0x3da29ac0	0.079396725
193	0xbe3eca45	-0.18631847
194	0xbef3a228	-0.47584653
195	0xbef0cb02	-0.47029883
196	0xbe6a0b7c	-0.22855943
197	0xbf1e0a86	-0.6173481
198	0x3f86a83b	1.052009
199	0x3e35dfb6	0.1776112
200	0x3e25c028	0.16186583
201	0x3d6bda60	0.057581306
202	0x3e1e0cd9	0.15434588
203	0xbd960f50	-0.073271394
204	0xbf0d2a1b	-0.5514237
205	0xbf0e5be7	-0.5560898
206	0x3e28a979	0.16470899
207	0xbe101148	-0.14069092
208	0x3f8353df	1.025997
209	0xbed9bb83	-0.42525873
210	0xbf3120ad	-0.69190484
211	0x3dddc20c	0.10828027
212	0xbf3122e6	-0.69193876
213	0xbf31274b	-0.6920058
214	0xbf31262f	-0.6919889
215	0xbef21c53	-0.47287235
216	0x3e9b6812	0.30352837
217	0x3e4de8ca	0.20108333
218	0x3ea5df93	0.32397136
219	0xbe413147	-0.18866454
220	0x3f27ee32	0.6559783
221	0xbdbe2418	-0.09284228
222	0x3ea196e7	0.31560442
223	0x3e816ec9	0.25279835
224	0xbe944ef1	-0.28966478
225	0x3ce2b06b	0.027672013
226	0x3e338182	0.17529872
227	0x3e55550c	0.20833224
228	0x3e459111	0.1929362
229	0x3e2b8385	0.1674939
230	0x3e6e7d82	0.23290065
231	0x3e250ac5	0.1611739
232	0x3e4b423b	0.19849484
233	0x3e453ccb	0.19261472
234	0x3f29f735	0.66392833
235	0x3e965ffe	0.2937011
236	0xbf0acafe	-0.5421599
237	0xbf0973cc	-0.53692317
238	0x3ea295e8	0.31754994
239	0xbf311cea	-0.69184744
240	0xbee37fa5	-0.44433323
241	0xbd949f5e	-0.072569594
242	0xbea2456a	-0.31693584
243	0x3eca8a0b	0.39558443
244	0x3f40a717	0.7525496
245	0x3d9b7787	0.075911574
246	0x3e342e4c	0.17595786
247	0x3d829960	0.0637691
248	0x3ec20790	0.37896395
249	0x3dbb4beb	0.091453396
250	0x3dea54c7	0.11441951
251	0x3e834ecd	0.25646058
252	0x3f299f81	0.6625901
253	0x3d763fba	0.060119368
254	0x3dc15922	0.09440829
255	0xbee3b10e	-0.4447102

l1.bias f4 [8]
0	0x3f15c54d	0.5850418
1	0x3f49eb23	0.78874415
2	0x3f0fdfe8	0.5620103
3	0x3f3127fd	0.6920164
4	0x3ee3a53d	0.44462004
5	0x3eca4007	0.39501974
6	0x3f317bd9	0.693296
7	0x3f4ef955	0.808492

l2.weight f4 [8, 8]
0	0xbf18f8a9	-0.59754425
1	0x3ff6d074	1.9282365
2	0x3fc9b3c6	1.5757987
3	0x3e9fb509	0.31192806
4	0xbf800eee	-1.0004556
5	0xbf6aac03	-0.9166872
6	0x3fd4f67b	1.663772
7	0x3f1633b4	0.5867264
8	0x3d8e62f0	0.069524646
9	0xbe9ce08c	-0.30640066
10	0x3dc58ec4	0.09646371
11	0xbc6be640	-0.014398158
12	0xbe1eca79	-0.15506925
13	0xbe7b1e53	-0.24523287
14	0x3e6d33be	0.2316427
15	0xbeacbab1	-0.33736184
16	0x3e47e813	0.19522123
17	0x3d867455	0.06565157
18	0xbe44e9bb	-0.19229786
19	0xbe6937cc	-0.22775191
20	0xbd67aafb	-0.056559544
21	0x3e03771e	0.12838408
22	0x3d81ae62	0.06332089
23	0xbe5679cc	-0.209449
24	0x3ebbee34	0.36705172
25	0x3fcc25c7	1.5949029
26	0x3ef6f628	0.48234677
27	0xbedecd33	-0.4351593
28	0xbf3c3675	-0.73520595
29	0xbee404a6	-0.44534796
30	0x3ff0d372	1.8814528
31	0x3f3f97a9	0.7484079
32	0x400899f4	2.1343966
33	0x3f2638be	0.6493033
34	0xbf948351	-1.1602575
35	0xbfd405e3	-1.6564296
36	0x3f079b6a	0.5297152
37	0x3faa1e4a	1.3290493
38	0x3f1846d1	0.5948306
39	0x3fd26c65	1.6439329
40	0x3f31c343	0.6943857
41	0xbe388998	-0.18021238
42	0x3f5cdd5d	0.86275274
43	0x3f94481d	1.1584507
44	0x3fa141c3	1.2598194
45	0x3f79a705	0.97520477
46	0xbfb67f5a	-1.4257615
47	0xbf4d2086	-0.8012775
48	0x3fda3592	1.7047598
49	0xbf7b13bc	-0.9807699
50	0xbf9e779f	-1.2380255
51	0x3f475e67	0.7787842
52	0x3f8eb5cd	1.1149231
53	0x3f296e1b	0.6618363
54	0xbf1b9a87	-0.60782665
55	0x3f5bb162	0.8581754
56	0x3f28cdcf	0.6593904
57	0xbe092a78	-0.13395107
58	0x3f61d397	0.88213485
59	0x3f7da0e6	0.99073637
60	0x3f87bb5d	1.0604054
61	0x3f8030b8	1.0014868
62	0xbf9b1b1c	-1.2117648
63	0xbf4af2d5	-0.7927678

l2.bias f4 [8]
0	0x3f5b121d	0.85574514
1	0xbea0294e	-0.31281513
2	0xbeb276ae	-0.3485617
3	0x3eb3b336	0.35097665
4	0x3e46bc00	0.19407654
5	0x3e60d3b8	0.21955764
6	0x3ef0ef75	0.4705769
7	0x3dce404b	0.10070857

l3.weight f4 [6, 8]
0	0xbf868514	-1.0509362
1	0xbe9fb868	-0.31195378
2	0x3e5061de	0.20349833
3	0xbfb7a7f1	-1.4348127
4	0xbff63962	-1.9236262
5	0x3eb0751b	0.34464344
6	0x3f5b7509	0.85725456
7	0x3e9f7515	0.31144014
8	0x3e546390	0.20741105
9	0x3e4b07ba	0.19827166
10	0x3e0f0fb8	0.1397084
11	0x3f05e46e	0.5230168
12	0x3f304d42	0.68867886
13	0xbf466291	-0.7749415
14	0xc0253d8b	-2.5818813
15	0xbed70ced	-0.4200205
16	0xbfa0c860	-1.256115
17	0x3e1dc842	0.15408424
18	0x3e41dc0b	0.18931596
19	0xbf9cf163	-1.2261165
20	0x3f124649	0.57138497
21	0xbe818fa9	-0.25304917
22	0x3f5756e5	0.84116966
23	0xbf2376fe	-0.6385344
24	0xbf26b5bb	-0.6512105
25	0x3e3c7bae	0.18406555
26	0xbe999e3b	-0.30003533
27	0x3dbc1ebe	0.09185551
28	0x3f64ae18	0.89328146
29	0xbfc82ab0	-1.5638027
30	0x3ecc8e4d	0.39952317
31	0xbfe7d83a	-1.8112862
32	0x3d81c7e7	0.063369565
33	0xbe88a397	-0.2668731
34	0x3e4ff5e9	0.20308651
35	0xbf0b90f0	-0.5451803
36	0xbf822952	-1.016886
37	0x3f0fcbf8	0.56170607
38	0xbfbac714	-1.4592004
39	0x3f0bb367	0.5457062
40	0x3f88f831	1.0700742
41	0x3dec4590	0.115367055
42	0xbdf574cd	-0.119851686
43	0x3f376304	0.7163546
44	0xbffc4933	-1.9709839
45	0xbf819e9e	-1.0126531
46	0xbf660ee4	-0.8986647
47	0xbfadbff4	-1.3574204

l3.bias f4 [6]
0	0x3ed39f13	0.41332301
1	0xbea113b0	-0.31460333
2	0x3d862a3c	0.06551024
3	0x3dad25f4	0.084545046
4	0xbdb6a28b	-0.08917721
5	0x3e6fa3d1	0.23402335
